…
[34m[1mhyperparameters: [0mlr0=0.00334, lrf=0.15135, momentum=0.74832, weight_decay=0.00025, warmup_epochs=3.3835, warmup_momentum=0.59462, warmup_bias_lr=0.18657, box=0.02, cls=0.21638, cls_pw=0.5, obj=0.51728, obj_pw=0.67198, iou_t=0.2, anchor_t=3.3744, fl_gamma=0.0, hsv_h=0.01041, hsv_s=0.54703, hsv_v=0.27739, degrees=0.0, translate=0.04591, scale=0.75544, shear=0.0, perspective=0.0, flipud=0.0, fliplr=0.5, mosaic=0.85834, mixup=0.04266, copy_paste=0.0, anchors=3.412
[34m[1mTensorBoard: [0mStart with 'tensorboard --logdir runs/feature_random_v2_5', view at http://localhost:6006/
Overriding model.yaml anchors with anchors=3.412

                 from  n    params  module                                  arguments                     
  0                -1  1      1760  models.common.Conv                      [3, 16, 6, 2, 2]              
  1                -1  1      4672  models.common.Conv                      [16, 32, 3, 2]                
  2                -1  1      4800  models.common.C3                        [32, 32, 1]                   
  3                -1  1     18560  models.common.Conv                      [32, 64, 3, 2]                
  4                -1  2     29184  models.common.C3                        [64, 64, 2]                   
  5                -1  1     73984  models.common.Conv                      [64, 128, 3, 2]               
  6                -1  3    156928  models.common.C3                        [128, 128, 3]                 
  7                -1  1    295424  models.common.Conv                      [128, 256, 3, 2]              
  8                -1  1    296448  models.common.C3                        [256, 256, 1]                 
  9                -1  1    164608  models.common.SPPF                      [256, 256, 5]                 
 10                -1  1     33024  models.common.Conv                      [256, 128, 1, 1]              
 11                -1  1         0  torch.nn.modules.upsampling.Upsample    [None, 2, 'nearest']          
 12           [-1, 6]  1         0  models.common.Concat                    [1]                           
 13                -1  1     90880  models.common.C3                        [256, 128, 1, False]          
 14                -1  1      8320  models.common.Conv                      [128, 64, 1, 1]               
 15                -1  1         0  torch.nn.modules.upsampling.Upsample    [None, 2, 'nearest']          
 16           [-1, 4]  1         0  models.common.Concat                    [1]                           
 17                -1  1     22912  models.common.C3                        [128, 64, 1, False]           
 18                -1  1     36992  models.common.Conv                      [64, 64, 3, 2]                
 19          [-1, 14]  1         0  models.common.Concat                    [1]                           
 20                -1  1     74496  models.common.C3                        [128, 128, 1, False]          
 21                -1  1    147712  models.common.Conv                      [128, 128, 3, 2]              
 22          [-1, 10]  1         0  models.common.Concat                    [1]                           
 23                -1  1    296448  models.common.C3                        [256, 256, 1, False]          
 24      [17, 20, 23]  1      9471  models.yolo.Detect                      [2, [[0, 1, 2, 3, 4, 5], [0, 1, 2, 3, 4, 5], [0, 1, 2, 3, 4, 5]], [64, 128, 256]]
Model Summary: 270 layers, 1766623 parameters, 1766623 gradients, 4.2 GFLOPs

[34m[1mgithub: [0mskipping check (not a git repository), for updates see https://github.com/ultralytics/yolov5
[34m[1mWeights & Biases: [0mrun 'pip install wandb' to automatically track and visualize YOLOv5 ðŸš€ runs (RECOMMENDED)
…
